selector_rl_model.npz (npz, 3570 bytes, 4 tensors)

weights1 f8 [8, 32]
-0.21891149075903416 -0.41884542024995874 -0.5584682711840627 0.06904340775575891 0.4610719591200002 -0.09000627520937154 0.37732548577355945 -0.17148133482835126
-0.43626709169104283 0.1618567357474506 -0.420668491222062 -0.38818395575928377 -0.04197216190423086 -0.4560065702926153 0.32542485035199303 0.4574892935324782
0.6356828237954221 -0.06356920788164731 -0.5690696512819009 0.2723278039981603 0.5994704749064612 0.7468173035537556 0.16959575530368637 -0.26017073197960683
-0.2120008131874003 -0.2835897145351478 -0.13450788001727496 -0.3777412803252928 -0.00769255200185292 -0.39604877487327117 0.21941940243640054 0.5790942243254247
-0.46387001626922286 0.07120826608425108 0.13704865999013063 -0.06447523632544094 -0.2771862768885666 -0.4249614638261974 -0.06260524615445907 -0.338055321640217
0.09815549168197799 0.10261290631559387 -0.4279881887993128 0.018842993361253595 -0.29236181173113784 -0.5670229743316963 0.06168133852581624 -0.1878101784509226
-0.34549587389450864 0.19413279941730033 0.37284719995832794 0.15868103365422356 0.6832653610824435 -0.19021525207052362 0.2717901634317856 0.08089852771106394
0.866779203873391 -0.2065898139034692 0.2836136942465096 -0.29147986825148287 -0.28979084461016447 -0.31141603316943006 0.19890388476554752 -0.220670946603402
0.17524241917174613 0.17573045149228556 0.1390501374700201 0.32489963991647164 0.18990549141105972 0.0462699305819244 0.11018593153931076 0.010609324752528395
-0.13555252390170544 0.34476509410784106 0.2157337433284321 0.2613836986153052 -0.19248742165126526 -0.08510674236665046 0.21196091293703445 0.8033602522203324
-0.09523316650337155 0.06059334570322038 0.5851562888731541 -0.20032585331649086 -0.4451022797121137 -0.06790537876468186 -0.3632339191367284 0.29206036324305584
0.40360278691859425 0.2823172389653661 -0.4143497081307793 0.0887895405401138 0.09144669456949074 -0.07952835991986855 -0.09010075539440472 0.04774146501052568
-0.2775527300018782 -0.49303790910772 -0.6015655564513074 -0.07826549897596577 -0.15702625519108954 -0.2892480695028448 -0.047994482913701814 0.2014879292248526
-0.5553712996905922 0.10950501906673309 -0.04598072313701304 1.1295249774723237 0.004851182273411981 0.34986103701895377 0.5769817485989233 0.17839714044262
0.05101585627874359 -0.3263952841684673 0.01567015836939224 0.2604610175543626 -0.3273740670907068 0.49480830116932556 -0.10776368787488083 -0.4354277062875488
0.5341302465280898 -0.2299773691366724 -0.340796392448835 0.3727984617169329 0.2079115343359738 0.3180075410875496 0.17174967177968964 0.48626685570272754
0.022232141361018205 -0.487038369506197 -0.3758452091927287 -0.1369467409615279 -0.7042995034899706 0.41447833212657803 -0.323304254267835 -0.18530456416775345
0.2559921420637355 0.012562568385560573 0.7090296160707131 0.12937001486142605 -0.06922569195930503 0.01266232414524459 -0.38016262513022053 0.20863785707752236
0.14543357499433454 0.5914774735552992 0.2654066368797977 -0.13769255591437687 -0.4766264546279422 -0.4431888509165812 0.12611595850508417 -0.6371644252748466
-0.0122924897853908 0.14213692736738423 -0.46864795351424643 -0.16941069116326013 0.28302458862603386 -0.30696768536884766 0.14305960702577372 -0.42749244483942556
-0.17197331884590786 0.5675757511712344 -0.06474160970751505 -0.006235024166506759 0.09836187258806325 -0.30493778142016914 -0.10323723544617007 0.34814488010649797
-0.18162194825327396 -0.1337408644911051 0.05601524825220481 0.040245480644846156 0.3018381415216382 -0.028673088551080517 -0.08149439894584527 0.36892962974821947
-0.19190494184860746 0.142026086319606 -0.08352668342084614 -0.3308652914692958 0.190332853537696 0.6145769362116362 0.14382578069305488 -0.12654346857486995
0.04334641022762919 -0.4513548638825032 0.13005230256873432 0.22156596289751868 0.42679745952238834 0.040235075757849355 0.9244189182814918 0.33029564716533155
0.16922703916202292 0.1024886648449525 0.006790282499367995 -0.39235402965773086 -0.16512604939923403 0.23077731120232808 0.010989291721764941 -0.4187290248346614
0.4892752412912993 0.3315453634309879 1.1406035223440605 0.10235678558195205 -0.0887822078629395 -0.1902508861616381 -0.18153883206045293 -0.3974250062253616
-0.4138486969712225 0.07307904690397227 -0.7043683789737276 0.5009415184841285 0.21982068161520538 -0.2583705701684078 0.11902833889144417 0.3055313449411714
-0.6573075393598323 -0.0017124844157332916 0.3910208929011301 -0.0984987233176812 -0.46674629700454123 -0.36966662782061727 0.23082040616996188 0.4991823760286588
0.22231800962182818 0.19819694007862462 0.017820450175000776 0.021957675846888857 0.09561962546835569 0.054650479751326794 0.47817808929303335 0.2841552822590279
0.3174355816817487 0.17037389369708725 -0.12799031990285525 -0.28485078445504514 -0.4428541029413909 0.05200091935454539 -0.7470337200412537 -0.0764302612025248
-0.20051300688100743 0.006466801552234487 0.22086622864323022 -0.09544895740957864 -0.6218413140826227 -0.2499791795361085 -0.9840589771798554 -0.4505302506360818
-0.19072861018707896 0.6494321990686849 0.27846691216506175 0.011636436665991652 0.14067443784158473 -0.23703323377951577 -0.17425093657291044 0.18733464937962474
00000000: 10ab c3ae 4a05 ccbf 8463 8305 5dce dabf
00000010: ccda 12da f8de e1bf 91bc 502a d4ac b13f
00000020: a679 61f6 3382 dd3f c082 75b8 a60a b7bf
00000030: 6710 56cb 1926 d83f 3029 7bb2 19f3 c5bf
00000040: 7a94 c8ce cceb dbbf 3b18 56b5 b8b7 c43f
00000050: 2d69 1089 3bec dabf ae5a b484 01d8 d8bf
00000060: 8732 710d 607d a5bf 01bf 8a2e 362f ddbf
00000070: fd51 64c0 c2d3 d43f 317f 7f2c 8147 dd3f
00000080: 8f91 5a81 8357 e43f 8761 e254 1246 b0bf
00000090: 46dc ac8e d135 e2bf 91ab fd98 d16d d13f
000000a0: c281 94b4 dc2e e33f 8935 db66 ede5 e73f
000000b0: 9eed 484f 50b5 c53f 8aa4 4e24 a3a6 d0bf
000000c0: d1c1 aeb7 d722 cbbf 9444 5a79 5526 d2bf
000000d0: 173f dde0 8d37 c1bf cb29 56c3 e92c d8bf
000000e0: f9f0 54b4 3982 7fbf 76e6 ecf5 dc58 d9bf
000000f0: f33d c95a ef15 cc3f 4af7 589c f087 e23f
00000100: c829 5edd 0bb0 ddbf c566 0976 b43a b23f
00000110: 5122 4f7c cf8a c13f 886d 6bf7 7281 b0bf
00000120: afba 8882 6bbd d1bf 4d67 4c91 9132 dbbf
00000130: 419b cabc e506 b0bf 5abe abc9 b2a2 d5bf
00000140: be67 b2e2 b720 b93f 83e2 c5e4 d644 ba3f
00000150: 9ae8 7d92 2864 dbbf 9b37 fbe0 934b 933f
00000160: ce02 ff50 0eb6 d2bf a4ba 5a5d 0d25 e2bf
00000170: 6ed8 7b47 b294 af3f cbbc 26f7 290a c8bf
00000180: 24e9 d1b9 9a1c d6bf 8803 4af4 57d9 c83f
00000190: ea79 8e80 badc d73f b32a 05fd a84f c43f
000001a0: d8d6 8a51 4fdd e53f 19f1 6b2f f958 c8bf
000001b0: cf18 d491 0265 d13f 1546 d012 c4b5 b43f
000001c0: f6a6 afbd a7bc eb3f e078 33f7 8871 cabf
000001d0: da22 5f0d ba26 d23f ce47 652d 9ba7 d2bf
000001e0: d8f9 11e6 ee8b d2bf 8d6a 7a83 3dee d3bf
000001f0: bfc4 0eb8 ae75 c93f 7f63 6b11 f23e ccbf
00000200: 2177 9bf5 576e c63f 120c 09df 557e c63f
00000210: b611 7818 65cc c13f 5819 fbdb 27cb d43f
00000220: dc7c 78b9 d24e c83f ae6d 463d b1b0 a73f
00000230: 6fcd 702c 2535 bc3f bb0d c276 57ba 853f
00000240: 9727 86fc c859 c1bf ecb6 ff9c a110 d63f
00000250: 88a0 1ece 299d cb3f 0aa8 50b1 82ba d03f
00000260: 0e18 7186 6da3 c8bf bd44 2233 8ec9 b5bf
00000270: 9424 8c02 8921 cb3f 192a 468f 20b5 e93f
00000280: 8862 a067 3361 b8bf 5e15 4d4c 1706 af3f
00000290: 1e49 78ae 99b9 e23f c7d0 440e 47a4 c9bf
000002a0: c644 af45 8e7c dcbf 1a4d 0435 3f62 b1bf
000002b0: bc5e df7a 393f d7bf 388e 25f3 1db1 d23f
000002c0: cbf2 98c8 a0d4 d93f 4802 1d53 7c11 d23f
000002d0: 8ed8 61a3 b484 dabf 61be d84c e9ba b63f
000002e0: e1d5 80f2 0c69 b73f abd9 f578 f85b b4bf
000002f0: 958c c3d5 d710 b7bf a144 c4bd 9171 a83f
00000300: 6a82 9186 6cc3 d1bf 8193 d3df ee8d dfbf
00000310: 1278 eb68 0640 e3bf d6c3 812e 3509 b4bf
00000320: ba5c 54b3 6f19 c4bf dd88 bc55 0a83 d2bf
00000330: 646c 019d bb92 a8bf d89d 4741 5bca c93f
00000340: 06dc 2908 9ac5 e1bf a3b4 a35b 8508 bc3f
00000350: bc63 3d0c c98a a7bf e923 64c8 8812 f23f
00000360: 8e3c 6153 d5de 733f fe06 098c 1f64 d63f
00000370: 70e1 936d a276 e23f 0c53 f3ad b7d5 c63f
00000380: 0ddb 9614 c01e aa3f d29e c40b a9e3 d4bf
00000390: e3f3 e086 d60b 903f fed8 11b0 64ab d03f
000003a0: 5ca3 ed5b b2f3 d4bf cbf0 d36f f0aa df3f
000003b0: 7c74 1eab 6696 bbbf 8abf 912b 0cde dbbf
000003c0: e18f 9450 9817 e13f 678d a1ff e56f cdbf
000003d0: da66 0aac 9bcf d5bf 85b1 4414 eedb d73f
000003e0: 7e93 375c d89c ca3f c08d 364d 3c5a d43f
000003f0: 7a3d b2ab e4fb c53f 4ace 9704 ff1e df3f
00000400: 7232 43c0 05c4 963f 2b48 3bfb a22b dfbf
00000410: bcd3 7510 d90d d8bf 279d dc86 7887 c1bf
00000420: c282 c21c 9f89 e6bf 0698 5820 d086 da3f
00000430: b73b af53 04b1 d4bf 5534 7359 0fb8 c7bf
00000440: 3997 8cdd 2c62 d03f 7c3d f562 67ba 893f
00000450: ab69 9de0 5eb0 e63f 8fd8 7457 328f c03f
00000460: 6e18 0263 c6b8 b1bf fceb c260 b4ee 893f
00000470: ab21 869e 9554 d8bf 6480 6d32 a5b4 ca3f
00000480: e1a6 2b40 919d c23f f0b3 a72a 62ed e23f
00000490: a690 621e 6cfc d03f f706 47e0 e89f c1bf
000004a0: a444 c23e 0c81 debf c6dd 28c5 345d dcbf
000004b0: 503a a456 9124 c03f ff5c 17a6 a663 e4bf
000004c0: d1d6 ea0c ce2c 89bf 5765 4cf7 8a31 c23f
000004d0: c795 6bfc 53fe ddbf 64c9 11e1 3faf c5bf
000004e0: f835 072a 131d d23f 18a2 65ca 5ba5 d3bf
000004f0: a1f3 c6f6 c64f c23f add5 7745 095c dbbf
00000500: 1127 1dc2 3803 c6bf 090f 299f 9429 e23f
00000510: 2e59 62f8 e792 b0bf e19d 288e e589 79bf
00000520: 9e65 f061 3e2e b93f 4eec a0c1 1984 d3bf
00000530: 3b83 f865 c16d babf a9f1 9476 0148 d63f
00000540: 21e7 fd53 633f c7bf 6764 90af 6b1e c1bf
00000550: ed1d a4d6 07ae ac3f 75e2 5c3e 0e9b a43f
00000560: b355 a1ec 5051 d33f dda7 6866 7a5c 9dbf
00000570: b592 4722 d1dc b4bf c1d0 9205 8b9c d73f
00000580: 4a1c 9754 5790 c8bf 5cf6 f529 e92d c23f
00000590: 01c9 a235 0162 b5bf 1c7f 8f9d e52c d5bf
000005a0: d73d a6b2 d35c c83f 94f4 3c40 9daa e33f
000005b0: c5fc 3218 e268 c23f 9396 868d 9332 c0bf
000005c0: ef40 a72c 8031 a63f 3904 d182 ffe2 dcbf
000005d0: d7ae 26c9 8da5 c03f 929a 4602 465c cc3f
000005e0: da87 aa4a a650 db3f 4168 101d b199 a43f
000005f0: 9753 bafb d694 ed3f 3085 a55a 9023 d53f
00000600: d65f 664b 3ba9 c53f 3c43 b877 b23c ba3f
00000610: 1a06 3f94 20d0 7b3f 755c 7513 541c d9bf
00000620: 0496 f1b2 d922 c5bf 8eeb 2266 1c8a cd3f
00000630: 22d3 68c4 8d81 863f 0141 e3d2 74cc dabf
00000640: 44ac 051a 4950 df3f d3e5 440b 0a38 d53f
00000650: eab8 a27a e93f f23f 9021 99e6 0d34 ba3f
00000660: 84ed 3c47 6eba b6bf 60b4 0c1b 245a c8bf
00000670: d7ab 5319 aa3c c7bf fe6e 164b 696f d9bf
00000680: 8cf3 be3e 7f7c dabf 88b4 79f4 4eb5 b23f
00000690: 10eb 008e 2f8a e6bf 1722 e381 b607 e03f
000006a0: 3bc8 4287 1523 cc3f e0d1 47b7 2489 d0bf
000006b0: 5101 d626 a478 be3f e836 9b57 d38d d33f
000006c0: edde 1ed2 a908 e5bf eff8 de23 ae0e 5cbf
000006d0: 6109 c47e 7c06 d93f aae1 585b 3637 b9bf
000006e0: 8b78 4adc 2bdf ddbf bf60 3a37 9ea8 d7bf
000006f0: 17ed dfe7 858b cd3f 2a17 f2a2 9af2 df3f
00000700: be9b 51a2 ea74 cc3f 1309 e76f 845e c93f
00000710: ff76 ce2a 863f 923f b35c a2ae 127c 963f
00000720: 110b 3e1c 877a b83f c63d 7cce 25fb ab3f
00000730: a359 cb45 789a de3f 7171 12a3 992f d23f
00000740: f03a 7a54 dd50 d43f b5b5 c2ce cfce c53f
00000750: ccfa 179f fc61 c0bf fb5b dec8 fe3a d2bf
00000760: 9d17 42bc b857 dcbf bbba fa4f dd9f aa3f
00000770: d3c3 9242 b3e7 e7bf 0622 4a00 ef90 b3bf
00000780: 96ff 7c03 69aa c9bf 2e3a d3d2 ee7c 7a3f
00000790: d321 6836 5845 cc3f 8bed 82c6 576f b8bf
000007a0: 3e2b 69c1 1fe6 e3bf 84ed 6458 51ff cfbf
000007b0: 7853 8a40 697d efbf 49cd 15d5 7cd5 dcbf
000007c0: eb1f 958b cb69 c8bf 0605 ff08 26c8 e43f
000007d0: 4317 31e2 66d2 d13f 3118 6117 d8d4 873f
000007e0: 58d6 f4b6 9e01 c23f 57f6 92e1 1a57 cebf
000007f0: fb62 f0cc da4d c6bf 641e 3ff0 94fa c73f

bias1 f8 [1, 32]
0.0 0.0 0.0 0.0 0.0 0.0 0.0 0.0
0.0 0.0 0.0 0.0 0.0 0.0 0.0 0.0
0.0 0.0 0.0 0.0 0.0 0.0 0.0 0.0
0.0 0.0 0.0 0.0 0.0 0.0 0.0 0.0
00000000: 0000 0000 0000 0000 0000 0000 0000 0000
00000010: 0000 0000 0000 0000 0000 0000 0000 0000
00000020: 0000 0000 0000 0000 0000 0000 0000 0000
00000030: 0000 0000 0000 0000 0000 0000 0000 0000
00000040: 0000 0000 0000 0000 0000 0000 0000 0000
00000050: 0000 0000 0000 0000 0000 0000 0000 0000
00000060: 0000 0000 0000 0000 0000 0000 0000 0000
00000070: 0000 0000 0000 0000 0000 0000 0000 0000
00000080: 0000 0000 0000 0000 0000 0000 0000 0000
00000090: 0000 0000 0000 0000 0000 0000 0000 0000
000000a0: 0000 0000 0000 0000 0000 0000 0000 0000
000000b0: 0000 0000 0000 0000 0000 0000 0000 0000
000000c0: 0000 0000 0000 0000 0000 0000 0000 0000
000000d0: 0000 0000 0000 0000 0000 0000 0000 0000
000000e0: 0000 0000 0000 0000 0000 0000 0000 0000
000000f0: 0000 0000 0000 0000 0000 0000 0000 0000

weights2 f8 [32, 1]
0.19189273926570877 0.12219901484385932 -0.1399417642680651 -0.23583687791295005 0.26999962281580464 0.08667695574350336 -0.2599895927342686 0.1439553629860051
-0.138263529039457 0.018079381467004017 -0.028778479964046717 0.11185335537678806 -0.2585204977545613 0.13314809332073088 0.11223323409317625 0.17975184399374147
-0.11853128591278872 -0.10154421262586426 -0.12470251648771204 0.36140576920986245 0.17109486589092168 -0.12543115910353816 0.05154474122579213 -0.06324307377202594
0.10300572199291137 0.0953281322929368 0.03475525126327343 -0.16664317741984683 -0.048351763033690695 0.062414018128562836 0.1432636534459787 -0.18383921203533837
00000000: ae37 bef7 f08f c83f 6998 5b44 6f48 bf3f
00000010: de1c 709a 9ce9 c1bf b8d6 e91e e72f cebf
00000020: 2147 7b7f ac47 d13f 2b35 3c02 7630 b63f
00000030: cc04 8663 aba3 d0bf e8e9 0d1c 216d c23f
00000040: 221d ba8b 9eb2 c1bf 16e0 87c0 6683 923f
00000050: 85c0 1819 1b78 9dbf 268a 4ae7 6ba2 bc3f
00000060: 16e5 cc8e 998b d0bf 7d2c 2b29 ff0a c13f
00000070: 635a f435 51bb bc3f eda5 acc1 1b02 c73f
00000080: 505a 8cfc 1058 bebf 0b7f 5330 cdfe b9bf
00000090: f12a 0b0e 81ec bfbf b0e4 d5a9 4521 d73f
000000a0: ffeb c1c2 6fe6 c53f 7fe1 1fd3 200e c0bf
000000b0: 43ed b083 1264 aa3f 4da3 8cb5 b230 b0bf
000000c0: 09ab 423f 955e ba3f b840 96aa 6c67 b83f
000000d0: c67d 14b7 70cb a13f 8d54 8f4a 9054 c5bf
000000e0: 7e06 def1 8fc1 a8bf 5f27 59ed baf4 af3f
000000f0: 2cc3 20a1 7656 c23f 1c04 b515 0b88 c7bf

bias2 f8 [1, 1]
0.0
00000000: 0000 0000 0000 0000
